~~~~~~~~~~~~~~~~~~~~~~~~~~~~~~~~~~~~~~~~~~~~~~~~~~~~~~~~~~~~~~~~~
_________________________________________________________________
Layer (type)                 Output Shape              Param #   
=================================================================
input_1 (InputLayer)         (None, 272, 272, 3)       0         
_________________________________________________________________
conv_1 (Conv2D)              (None, 272, 272, 16)      448       
_________________________________________________________________
pool_1 (MaxPooling2D)        (None, 136, 136, 16)      0         
_________________________________________________________________
conv_2 (Conv2D)              (None, 136, 136, 32)      4640      
_________________________________________________________________
pool_2 (MaxPooling2D)        (None, 68, 68, 32)        0         
_________________________________________________________________
conv_3 (Conv2D)              (None, 68, 68, 64)        18496     
_________________________________________________________________
pool_3 (MaxPooling2D)        (None, 34, 34, 64)        0         
_________________________________________________________________
conv_4 (Conv2D)              (None, 34, 34, 128)       73856     
_________________________________________________________________
pool_4 (MaxPooling2D)        (None, 17, 17, 128)       0         
_________________________________________________________________
conv_7 (Conv2D)              (None, 17, 17, 1024)      1180672   
_________________________________________________________________
conv_8 (Conv2D)              (None, 17, 17, 1024)      9438208   
_________________________________________________________________
conv_9 (Conv2D)              (None, 17, 17, 6)         6150      
_________________________________________________________________
reshape_1 (Reshape)          (None, 17, 17, 6)         0         
=================================================================
Total params: 10,722,470
Trainable params: 10,722,470
Non-trainable params: 0
_________________________________________________________________
+-----------+
| Optimizer |
+-----------+
|   adam    |
+-----------+
_________________________________________________________________
+------------+
| Batch Size |
+------------+
…
    Loss       : 0.037957631291881684
    Accuracy   : 0.9959534752753473
    Precision  : 0.0
    Recall     : 0.0
    F1 Score   : 0.0
_________________________________________________________________
Time:
    Train Time : 0:12:51.138173
    Full Time  : 0:15:17.285436
_________________________________________________________________
~~~~~~~~~~~~~~~~~~~~~~~~~~~~~~~~~~~~~~~~~~~~~~~~~~~~~~~~~~~~~~~~~
_________________________________________________________________
Layer (type)                 Output Shape              Param #   
=================================================================
input_1 (InputLayer)         (None, 272, 272, 3)       0         
_________________________________________________________________
conv_1 (Conv2D)              (None, 272, 272, 32)      896       
_________________________________________________________________
pool_1 (MaxPooling2D)        (None, 136, 136, 32)      0         
_________________________________________________________________
conv_2 (Conv2D)              (None, 136, 136, 64)      18496     
_________________________________________________________________
pool_2 (MaxPooling2D)        (None, 68, 68, 64)        0         
_________________________________________________________________
conv_3 (Conv2D)              (None, 68, 68, 128)       73856     
_________________________________________________________________
conv_4 (Conv2D)              (None, 68, 68, 64)        8256      
_________________________________________________________________
conv_5 (Conv2D)              (None, 68, 68, 128)       73856     
_________________________________________________________________
pool_3 (MaxPooling2D)        (None, 34, 34, 128)       0         
_________________________________________________________________
conv_6 (Conv2D)              (None, 34, 34, 256)       295168    
_________________________________________________________________
conv_7 (Conv2D)              (None, 34, 34, 128)       32896     
_________________________________________________________________
conv_8 (Conv2D)              (None, 34, 34, 256)       295168    
_________________________________________________________________
pool_4 (MaxPooling2D)        (None, 17, 17, 256)       0         
_________________________________________________________________
conv_9 (Conv2D)              (None, 17, 17, 1024)      2360320   
_________________________________________________________________
conv_10 (Conv2D)             (None, 17, 17, 1024)      9438208   
_________________________________________________________________
conv_11 (Conv2D)             (None, 17, 17, 6)         6150      
_________________________________________________________________
reshape_1 (Reshape)          (None, 17, 17, 6)         0         
=================================================================
Total params: 12,603,270
Trainable params: 12,603,270
Non-trainable params: 0
_________________________________________________________________
+---------+----------------+-------------------+-----------------+-------------------+------------------+----------------+--------------+-----------------+---------------+------------+
…
| Validation Metrics | 0.0379887535687 | 0.952603230553 |    0.0    |  0.0   |   0.0    |
+--------------------+-----------------+----------------+-----------+--------+----------+
_________________________________________________________________
Time:
    Train Time : 0:32:17.672690
    Full Time  : 0:58:06.677430
_________________________________________________________________
~~~~~~~~~~~~~~~~~~~~~~~~~~~~~~~~~~~~~~~~~~~~~~~~~~~~~~~~~~~~~~~~~
_________________________________________________________________
Layer (type)                 Output Shape              Param #   
=================================================================
input_4 (InputLayer)         (None, 272, 272, 3)       0         
_________________________________________________________________
conv_1 (Conv2D)              (None, 272, 272, 32)      896       
_________________________________________________________________
pool_1 (MaxPooling2D)        (None, 136, 136, 32)      0         
_________________________________________________________________
conv_2 (Conv2D)              (None, 136, 136, 64)      18496     
_________________________________________________________________
pool_2 (MaxPooling2D)        (None, 68, 68, 64)        0         
_________________________________________________________________
conv_3 (Conv2D)              (None, 68, 68, 128)       73856     
_________________________________________________________________
conv_4 (Conv2D)              (None, 68, 68, 64)        8256      
_________________________________________________________________
conv_5 (Conv2D)              (None, 68, 68, 128)       73856     
_________________________________________________________________
pool_3 (MaxPooling2D)        (None, 34, 34, 128)       0         
_________________________________________________________________
conv_6 (Conv2D)              (None, 34, 34, 256)       295168    
_________________________________________________________________
conv_7 (Conv2D)              (None, 34, 34, 128)       32896     
_________________________________________________________________
conv_8 (Conv2D)              (None, 34, 34, 256)       295168    
_________________________________________________________________
pool_4 (MaxPooling2D)        (None, 17, 17, 256)       0         
_________________________________________________________________
conv_9 (Conv2D)              (None, 17, 17, 1024)      2360320   
_________________________________________________________________
conv_10 (Conv2D)             (None, 17, 17, 1024)      9438208   
_________________________________________________________________
fc_1 (Dense)                 (None, 17, 17, 4096)      4198400   
_________________________________________________________________
conv_11 (Conv2D)             (None, 17, 17, 6)         24582     
_________________________________________________________________
reshape_4 (Reshape)          (None, 17, 17, 6)         0         
=================================================================
Total params: 16,820,102
Trainable params: 16,820,102
Non-trainable params: 0
_________________________________________________________________
+---------+----------------+------------------+-----------------+-------------------+------------------+----------------+--------------+-----------------+---------------+------------+
…
| Validation Metrics | 0.0379881404581 | 0.990874798067 |    0.0    |  0.0   |   0.0    |
+--------------------+-----------------+----------------+-----------+--------+----------+
_________________________________________________________________
Time:
    Train Time : 0:34:29.011863
    Full Time  : 1:06:41.170620
_________________________________________________________________
~~~~~~~~~~~~~~~~~~~~~~~~~~~~~~~~~~~~~~~~~~~~~~~~~~~~~~~~~~~~~~~~~
_________________________________________________________________
Layer (type)                 Output Shape              Param #   
=================================================================
input_1 (InputLayer)         (None, 272, 272, 3)       0         
_________________________________________________________________
conv_1 (Conv2D)              (None, 272, 272, 32)      896       
_________________________________________________________________
pool_1 (MaxPooling2D)        (None, 136, 136, 32)      0         
_________________________________________________________________
conv_2 (Conv2D)              (None, 136, 136, 64)      18496     
_________________________________________________________________
pool_2 (MaxPooling2D)        (None, 68, 68, 64)        0         
_________________________________________________________________
conv_3 (Conv2D)              (None, 68, 68, 128)       73856     
_________________________________________________________________
conv_4 (Conv2D)              (None, 68, 68, 64)        8256      
_________________________________________________________________
conv_5 (Conv2D)              (None, 68, 68, 128)       73856     
_________________________________________________________________
pool_3 (MaxPooling2D)        (None, 34, 34, 128)       0         
_________________________________________________________________
conv_6 (Conv2D)              (None, 34, 34, 256)       295168    
_________________________________________________________________
conv_7 (Conv2D)              (None, 34, 34, 128)       32896     
_________________________________________________________________
conv_8 (Conv2D)              (None, 34, 34, 256)       295168    
_________________________________________________________________
pool_4 (MaxPooling2D)        (None, 17, 17, 256)       0         
_________________________________________________________________
conv_9 (Conv2D)              (None, 17, 17, 1024)      2360320   
_________________________________________________________________
conv_10 (Conv2D)             (None, 17, 17, 1024)      9438208   
_________________________________________________________________
conv_11 (Conv2D)             (None, 17, 17, 4)         4100      
_________________________________________________________________
reshape_1 (Reshape)          (None, 17, 17, 4)         0         
=================================================================
Total params: 12,601,220
Trainable params: 12,601,220
Non-trainable params: 0
_________________________________________________________________
+---------+----------------+----------+-----------------+-----------+--------+----------------+--------------+-----------------+---------------+------------+
|  Epoch  |      acc       | fmeasure |       loss      | precision | recall |    val_acc     | val_fmeasure |     val_loss    | val_precision | val_recall |
…
| Validation Metrics | 0.0278932524304 | 0.987568074657 |    0.0    |  0.0   |   0.0    |
+--------------------+-----------------+----------------+-----------+--------+----------+
_________________________________________________________________
Time:
    Train Time : 0:29:24.074117
    Full Time  : 0:45:03.458174
_________________________________________________________________
~~~~~~~~~~~~~~~~~~~~~~~~~~~~~~~~~~~~~~~~~~~~~~~~~~~~~~~~~~~~~~~~~
_________________________________________________________________
Layer (type)                 Output Shape              Param #   
=================================================================
input_1 (InputLayer)         (None, 288, 288, 3)       0         
_________________________________________________________________
conv_1 (Conv2D)              (None, 288, 288, 32)      896       
_________________________________________________________________
pool_1 (MaxPooling2D)        (None, 144, 144, 32)      0         
_________________________________________________________________
conv_2 (Conv2D)              (None, 144, 144, 64)      18496     
_________________________________________________________________
pool_2 (MaxPooling2D)        (None, 72, 72, 64)        0         
_________________________________________________________________
conv_3 (Conv2D)              (None, 72, 72, 128)       73856     
_________________________________________________________________
conv_4 (Conv2D)              (None, 72, 72, 64)        8256      
_________________________________________________________________
conv_5 (Conv2D)              (None, 72, 72, 128)       73856     
_________________________________________________________________
pool_3 (MaxPooling2D)        (None, 36, 36, 128)       0         
_________________________________________________________________
conv_6 (Conv2D)              (None, 36, 36, 256)       295168    
_________________________________________________________________
conv_7 (Conv2D)              (None, 36, 36, 128)       32896     
_________________________________________________________________
conv_8 (Conv2D)              (None, 36, 36, 256)       295168    
_________________________________________________________________
pool_4 (MaxPooling2D)        (None, 18, 18, 256)       0         
_________________________________________________________________
conv_9 (Conv2D)              (None, 18, 18, 512)       1180160   
_________________________________________________________________
conv_10 (Conv2D)             (None, 18, 18, 256)       131328    
_________________________________________________________________
conv_11 (Conv2D)             (None, 18, 18, 512)       1180160   
_________________________________________________________________
pool_5 (MaxPooling2D)        (None, 9, 9, 512)         0         
_________________________________________________________________
conv_12 (Conv2D)             (None, 9, 9, 1024)        4719616   
_________________________________________________________________
conv_13 (Conv2D)             (None, 9, 9, 1024)        9438208   
_________________________________________________________________
conv_14 (Conv2D)             (None, 9, 9, 6)           6150      
_________________________________________________________________
reshape_1 (Reshape)          (None, 9, 9, 6)           0         
=================================================================
Total params: 17,454,214
Trainable params: 17,454,214
Non-trainable params: 0
_________________________________________________________________
+---------+----------------+-------------------+----------------+-------------------+-------------------+----------------+--------------+----------------+---------------+------------+
…
| Validation Metrics | 0.135431998199 | 0.97391476362  |    0.0    |  0.0   |   0.0    |
+--------------------+----------------+----------------+-----------+--------+----------+
_________________________________________________________________
Time:
    Train Time : 0:29:38.545060
    Full Time  : 0:53:38.592536
_________________________________________________________________
~~~~~~~~~~~~~~~~~~~~~~~~~~~~~~~~~~~~~~~~~~~~~~~~~~~~~~~~~~~~~~~~~
_________________________________________________________________
Layer (type)                 Output Shape              Param #   
=================================================================
input_2 (InputLayer)         (None, 288, 288, 3)       0         
_________________________________________________________________
conv_1 (Conv2D)              (None, 288, 288, 32)      896       
_________________________________________________________________
pool_1 (MaxPooling2D)        (None, 144, 144, 32)      0         
_________________________________________________________________
conv_2 (Conv2D)              (None, 144, 144, 64)      18496     
_________________________________________________________________
pool_2 (MaxPooling2D)        (None, 72, 72, 64)        0         
_________________________________________________________________
conv_3 (Conv2D)              (None, 72, 72, 128)       73856     
_________________________________________________________________
conv_4 (Conv2D)              (None, 72, 72, 64)        8256      
_________________________________________________________________
conv_5 (Conv2D)              (None, 72, 72, 128)       73856     
_________________________________________________________________
pool_3 (MaxPooling2D)        (None, 36, 36, 128)       0         
_________________________________________________________________
conv_6 (Conv2D)              (None, 36, 36, 256)       295168    
_________________________________________________________________
conv_7 (Conv2D)              (None, 36, 36, 128)       32896     
_________________________________________________________________
conv_8 (Conv2D)              (None, 36, 36, 256)       295168    
_________________________________________________________________
pool_4 (MaxPooling2D)        (None, 18, 18, 256)       0         
_________________________________________________________________
conv_9 (Conv2D)              (None, 18, 18, 512)       1180160   
_________________________________________________________________
conv_10 (Conv2D)             (None, 18, 18, 256)       131328    
_________________________________________________________________
conv_11 (Conv2D)             (None, 18, 18, 512)       1180160   
_________________________________________________________________
pool_5 (MaxPooling2D)        (None, 9, 9, 512)         0         
_________________________________________________________________
conv_12 (Conv2D)             (None, 9, 9, 1024)        4719616   
_________________________________________________________________
conv_13 (Conv2D)             (None, 9, 9, 1024)        9438208   
_________________________________________________________________
conv_14 (Conv2D)             (None, 9, 9, 5)           5125      
_________________________________________________________________
reshape_2 (Reshape)          (None, 9, 9, 5)           0         
=================================================================
Total params: 17,453,189
Trainable params: 17,453,189
Non-trainable params: 0
_________________________________________________________________
+---------+----------------+----------+----------------+-----------+--------+----------------+--------------+----------------+---------------+------------+
|  Epoch  |      acc       | fmeasure |      loss      | precision | recall |    val_acc     | val_fmeasure |    val_loss    | val_precision | val_recall |
…
| Validation Metrics | 0.12099962994  | 0.979788941722 |    0.0    |  0.0   |   0.0    |
+--------------------+----------------+----------------+-----------+--------+----------+
_________________________________________________________________
Time:
    Train Time : 0:36:22.556746
    Full Time  : 1:10:38.240111
_________________________________________________________________
~~~~~~~~~~~~~~~~~~~~~~~~~~~~~~~~~~~~~~~~~~~~~~~~~~~~~~~~~~~~~~~~~
_________________________________________________________________
Layer (type)                 Output Shape              Param #   
=================================================================
input_3 (InputLayer)         (None, 288, 288, 3)       0         
_________________________________________________________________
conv_1 (Conv2D)              (None, 288, 288, 32)      896       
_________________________________________________________________
pool_1 (MaxPooling2D)        (None, 144, 144, 32)      0         
_________________________________________________________________
conv_2 (Conv2D)              (None, 144, 144, 64)      18496     
_________________________________________________________________
pool_2 (MaxPooling2D)        (None, 72, 72, 64)        0         
_________________________________________________________________
conv_3 (Conv2D)              (None, 72, 72, 128)       73856     
_________________________________________________________________
conv_4 (Conv2D)              (None, 72, 72, 64)        8256      
_________________________________________________________________
conv_5 (Conv2D)              (None, 72, 72, 128)       73856     
_________________________________________________________________
pool_3 (MaxPooling2D)        (None, 36, 36, 128)       0         
_________________________________________________________________
conv_6 (Conv2D)              (None, 36, 36, 256)       295168    
_________________________________________________________________
conv_7 (Conv2D)              (None, 36, 36, 128)       32896     
_________________________________________________________________
conv_8 (Conv2D)              (None, 36, 36, 256)       295168    
_________________________________________________________________
pool_4 (MaxPooling2D)        (None, 18, 18, 256)       0         
_________________________________________________________________
conv_9 (Conv2D)              (None, 18, 18, 512)       1180160   
_________________________________________________________________
conv_10 (Conv2D)             (None, 18, 18, 256)       131328    
_________________________________________________________________
conv_11 (Conv2D)             (None, 18, 18, 512)       1180160   
_________________________________________________________________
pool_5 (MaxPooling2D)        (None, 9, 9, 512)         0         
_________________________________________________________________
conv_12 (Conv2D)             (None, 9, 9, 1024)        4719616   
_________________________________________________________________
conv_13 (Conv2D)             (None, 9, 9, 1024)        9438208   
_________________________________________________________________
conv_14 (Conv2D)             (None, 9, 9, 4)           4100      
_________________________________________________________________
reshape_3 (Reshape)          (None, 9, 9, 4)           0         
=================================================================
Total params: 17,452,164
Trainable params: 17,452,164
Non-trainable params: 0
_________________________________________________________________
+---------+----------------+----------+----------------+-----------+--------+----------------+--------------+-----------------+---------------+------------+
|  Epoch  |      acc       | fmeasure |      loss      | precision | recall |    val_acc     | val_fmeasure |     val_loss    | val_precision | val_recall |
…
| Validation Metrics | 0.0993411661156 | 0.985364442871 |    0.0    |  0.0   |   0.0    |
+--------------------+-----------------+----------------+-----------+--------+----------+
_________________________________________________________________
Time:
    Train Time : 0:37:10.861573
    Full Time  : 1:18:08.506207
_________________________________________________________________
~~~~~~~~~~~~~~~~~~~~~~~~~~~~~~~~~~~~~~~~~~~~~~~~~~~~~~~~~~~~~~~~~
_________________________________________________________________
Layer (type)                 Output Shape              Param #   
=================================================================
input_1 (InputLayer)         (None, 288, 288, 3)       0         
_________________________________________________________________
conv_1 (Conv2D)              (None, 288, 288, 32)      896       
_________________________________________________________________
pool_1 (MaxPooling2D)        (None, 144, 144, 32)      0         
_________________________________________________________________
conv_2 (Conv2D)              (None, 144, 144, 64)      18496     
_________________________________________________________________
pool_2 (MaxPooling2D)        (None, 72, 72, 64)        0         
_________________________________________________________________
conv_3 (Conv2D)              (None, 72, 72, 128)       73856     
_________________________________________________________________
conv_4 (Conv2D)              (None, 72, 72, 64)        8256      
_________________________________________________________________
conv_5 (Conv2D)              (None, 72, 72, 128)       73856     
_________________________________________________________________
pool_3 (MaxPooling2D)        (None, 36, 36, 128)       0         
_________________________________________________________________
conv_6 (Conv2D)              (None, 36, 36, 256)       295168    
_________________________________________________________________
conv_7 (Conv2D)              (None, 36, 36, 128)       32896     
_________________________________________________________________
conv_8 (Conv2D)              (None, 36, 36, 256)       295168    
_________________________________________________________________
pool_4 (MaxPooling2D)        (None, 18, 18, 256)       0         
_________________________________________________________________
conv_9 (Conv2D)              (None, 18, 18, 512)       1180160   
_________________________________________________________________
conv_10 (Conv2D)             (None, 18, 18, 256)       131328    
_________________________________________________________________
conv_11 (Conv2D)             (None, 18, 18, 512)       1180160   
_________________________________________________________________
conv_12 (Conv2D)             (None, 18, 18, 256)       131328    
_________________________________________________________________
conv_13 (Conv2D)             (None, 18, 18, 512)       1180160   
_________________________________________________________________
pool_5 (MaxPooling2D)        (None, 9, 9, 512)         0         
_________________________________________________________________
conv_14 (Conv2D)             (None, 9, 9, 1024)        4719616   
_________________________________________________________________
conv_15 (Conv2D)             (None, 9, 9, 1024)        9438208   
_________________________________________________________________
conv_16 (Conv2D)             (None, 9, 9, 6)           6150      
_________________________________________________________________
reshape_1 (Reshape)          (None, 9, 9, 6)           0         
=================================================================
Total params: 18,765,702
Trainable params: 18,765,702
Non-trainable params: 0
_________________________________________________________________
+---------+----------------+-------------------+-----------------+------------------+-------------------+----------------+------------------+-----------------+----------------+------------------+
…
| Validation Metrics | 0.0233520919517 | 0.963162124157 |    1.0    |      0.5       | 0.66666662693  |
+--------------------+-----------------+----------------+-----------+----------------+----------------+
_________________________________________________________________
Time:
    Train Time : 0:30:59.269510
    Full Time  : 1:00:54.694443
_________________________________________________________________
~~~~~~~~~~~~~~~~~~~~~~~~~~~~~~~~~~~~~~~~~~~~~~~~~~~~~~~~~~~~~~~~~
_________________________________________________________________
Layer (type)                 Output Shape              Param #   
=================================================================
input_1 (InputLayer)         (None, 288, 288, 3)       0         
_________________________________________________________________
conv_1 (Conv2D)              (None, 288, 288, 32)      864       
_________________________________________________________________
pool_1 (MaxPooling2D)        (None, 144, 144, 32)      0         
_________________________________________________________________
conv_2 (Conv2D)              (None, 144, 144, 64)      18432     
_________________________________________________________________
pool_2 (MaxPooling2D)        (None, 72, 72, 64)        0         
_________________________________________________________________
conv_3 (Conv2D)              (None, 72, 72, 128)       73728     
_________________________________________________________________
conv_4 (Conv2D)              (None, 72, 72, 64)        8192      
_________________________________________________________________
conv_5 (Conv2D)              (None, 72, 72, 128)       73728     
_________________________________________________________________
pool_3 (MaxPooling2D)        (None, 36, 36, 128)       0         
_________________________________________________________________
conv_6 (Conv2D)              (None, 36, 36, 256)       294912    
_________________________________________________________________
conv_7 (Conv2D)              (None, 36, 36, 128)       32768     
_________________________________________________________________
conv_8 (Conv2D)              (None, 36, 36, 256)       294912    
_________________________________________________________________
pool_4 (MaxPooling2D)        (None, 18, 18, 256)       0         
_________________________________________________________________
conv_9 (Conv2D)              (None, 18, 18, 512)       1179648   
_________________________________________________________________
conv_10 (Conv2D)             (None, 18, 18, 256)       131072    
_________________________________________________________________
conv_11 (Conv2D)             (None, 18, 18, 512)       1179648   
_________________________________________________________________
conv_12 (Conv2D)             (None, 18, 18, 256)       131072    
_________________________________________________________________
conv_13 (Conv2D)             (None, 18, 18, 512)       1179648   
_________________________________________________________________
pool_5 (MaxPooling2D)        (None, 9, 9, 512)         0         
_________________________________________________________________
conv_14 (Conv2D)             (None, 9, 9, 1024)        4718592   
_________________________________________________________________
conv_15 (Conv2D)             (None, 9, 9, 1024)        9437184   
_________________________________________________________________
conv_16 (Conv2D)             (None, 9, 9, 6)           6150      
_________________________________________________________________
reshape_1 (Reshape)          (None, 9, 9, 6)           0         
=================================================================
Total params: 18,760,550
Trainable params: 18,760,550
Non-trainable params: 0
_________________________________________________________________
+---------+-----------------+---------------+------+----------------+---------------+-----------------+---------------+----------+---------------+------------+
|  Epoch  |       acc       |    fmeasure   | loss |   precision    |     recall    |     val_acc     |  val_fmeasure | val_loss | val_precision | val_recall |
…
| Validation Metrics | nan  | 0.0123456791043 |    1.0    |     81.0     | 1.97560977936 |
+--------------------+------+-----------------+-----------+--------------+---------------+
_________________________________________________________________
Time:
    Train Time : 0:31:40.190013
    Full Time  : 0:59:57.545835
_________________________________________________________________
~~~~~~~~~~~~~~~~~~~~~~~~~~~~~~~~~~~~~~~~~~~~~~~~~~~~~~~~~~~~~~~~~
_________________________________________________________________
Layer (type)                 Output Shape              Param #   
=================================================================
input_1 (InputLayer)         (None, 288, 288, 3)       0         
_________________________________________________________________
conv_1 (Conv2D)              (None, 288, 288, 32)      864       
_________________________________________________________________
pool_1 (MaxPooling2D)        (None, 144, 144, 32)      0         
_________________________________________________________________
conv_2 (Conv2D)              (None, 144, 144, 64)      18432     
_________________________________________________________________
pool_2 (MaxPooling2D)        (None, 72, 72, 64)        0         
_________________________________________________________________
conv_3 (Conv2D)              (None, 72, 72, 128)       73728     
_________________________________________________________________
conv_4 (Conv2D)              (None, 72, 72, 64)        8192      
_________________________________________________________________
conv_5 (Conv2D)              (None, 72, 72, 128)       73728     
_________________________________________________________________
pool_3 (MaxPooling2D)        (None, 36, 36, 128)       0         
_________________________________________________________________
conv_6 (Conv2D)              (None, 36, 36, 256)       294912    
_________________________________________________________________
conv_7 (Conv2D)              (None, 36, 36, 128)       32768     
_________________________________________________________________
conv_8 (Conv2D)              (None, 36, 36, 256)       294912    
_________________________________________________________________
pool_4 (MaxPooling2D)        (None, 18, 18, 256)       0         
_________________________________________________________________
conv_9 (Conv2D)              (None, 18, 18, 512)       1179648   
_________________________________________________________________
conv_10 (Conv2D)             (None, 18, 18, 256)       131072    
_________________________________________________________________
conv_11 (Conv2D)             (None, 18, 18, 512)       1179648   
_________________________________________________________________
conv_12 (Conv2D)             (None, 18, 18, 256)       131072    
_________________________________________________________________
conv_13 (Conv2D)             (None, 18, 18, 512)       1179648   
_________________________________________________________________
pool_5 (MaxPooling2D)        (None, 9, 9, 512)         0         
_________________________________________________________________
conv_14 (Conv2D)             (None, 9, 9, 1024)        4718592   
_________________________________________________________________
conv_15 (Conv2D)             (None, 9, 9, 1024)        9437184   
_________________________________________________________________
conv_16 (Conv2D)             (None, 9, 9, 6)           6144      
_________________________________________________________________
reshape_1 (Reshape)          (None, 9, 9, 6)           0         
=================================================================
Total params: 18,760,544
Trainable params: 18,760,544
Non-trainable params: 0
_________________________________________________________________
+---------+----------------+----------+-----------------+-----------+--------+----------------+--------------+-----------------+---------------+------------+
|  Epoch  |      acc       | fmeasure |       loss      | precision | recall |    val_acc     | val_fmeasure |     val_loss    | val_precision | val_recall |
…
