_________________________________________________________________
Layer (type)                 Output Shape              Param #   
=================================================================
input_1 (InputLayer)         (None, 288, 288, 3)       0         
_________________________________________________________________
conv_1 (Conv2D)              (None, 288, 288, 32)      896       
_________________________________________________________________
norm_1 (BatchNormalization)  (None, 288, 288, 32)      128       
_________________________________________________________________
relu_1 (LeakyReLU)           (None, 288, 288, 32)      0         
_________________________________________________________________
pool_1 (MaxPooling2D)        (None, 144, 144, 32)      0         
_________________________________________________________________
conv_2 (Conv2D)              (None, 144, 144, 64)      18496     
_________________________________________________________________
norm_2 (BatchNormalization)  (None, 144, 144, 64)      256       
_________________________________________________________________
relu_2 (LeakyReLU)           (None, 144, 144, 64)      0         
_________________________________________________________________
pool_2 (MaxPooling2D)        (None, 72, 72, 64)        0         
_________________________________________________________________
conv_3 (Conv2D)              (None, 72, 72, 128)       73856     
_________________________________________________________________
norm_3 (BatchNormalization)  (None, 72, 72, 128)       512       
_________________________________________________________________
relu_3 (LeakyReLU)           (None, 72, 72, 128)       0         
_________________________________________________________________
conv_4 (Conv2D)              (None, 72, 72, 64)        8256      
_________________________________________________________________
norm_4 (BatchNormalization)  (None, 72, 72, 64)        256       
_________________________________________________________________
relu_4 (LeakyReLU)           (None, 72, 72, 64)        0         
_________________________________________________________________
conv_5 (Conv2D)              (None, 72, 72, 128)       73856     
_________________________________________________________________
norm_5 (BatchNormalization)  (None, 72, 72, 128)       512       
_________________________________________________________________
relu_5 (LeakyReLU)           (None, 72, 72, 128)       0         
_________________________________________________________________
pool_3 (MaxPooling2D)        (None, 36, 36, 128)       0         
_________________________________________________________________
conv_6 (Conv2D)              (None, 36, 36, 256)       295168    
_________________________________________________________________
norm_6 (BatchNormalization)  (None, 36, 36, 256)       1024      
_________________________________________________________________
relu_6 (LeakyReLU)           (None, 36, 36, 256)       0         
_________________________________________________________________
conv_7 (Conv2D)              (None, 36, 36, 128)       32896     
_________________________________________________________________
norm_7 (BatchNormalization)  (None, 36, 36, 128)       512       
_________________________________________________________________
relu_7 (LeakyReLU)           (None, 36, 36, 128)       0         
_________________________________________________________________
conv_8 (Conv2D)              (None, 36, 36, 256)       295168    
_________________________________________________________________
norm_8 (BatchNormalization)  (None, 36, 36, 256)       1024      
_________________________________________________________________
relu_8 (LeakyReLU)           (None, 36, 36, 256)       0         
_________________________________________________________________
pool_4 (MaxPooling2D)        (None, 18, 18, 256)       0         
_________________________________________________________________
conv_9 (Conv2D)              (None, 18, 18, 512)       1180160   
_________________________________________________________________
norm_9 (BatchNormalization)  (None, 18, 18, 512)       2048      
_________________________________________________________________
relu_9 (LeakyReLU)           (None, 18, 18, 512)       0         
_________________________________________________________________
conv_10 (Conv2D)             (None, 18, 18, 256)       131328    
_________________________________________________________________
norm_10 (BatchNormalization) (None, 18, 18, 256)       1024      
_________________________________________________________________
relu_10 (LeakyReLU)          (None, 18, 18, 256)       0         
_________________________________________________________________
conv_11 (Conv2D)             (None, 18, 18, 512)       1180160   
_________________________________________________________________
norm_11 (BatchNormalization) (None, 18, 18, 512)       2048      
_________________________________________________________________
relu_11 (LeakyReLU)          (None, 18, 18, 512)       0         
_________________________________________________________________
conv_12 (Conv2D)             (None, 18, 18, 256)       131328    
_________________________________________________________________
norm_12 (BatchNormalization) (None, 18, 18, 256)       1024      
_________________________________________________________________
relu_12 (LeakyReLU)          (None, 18, 18, 256)       0         
_________________________________________________________________
conv_13 (Conv2D)             (None, 18, 18, 512)       1180160   
_________________________________________________________________
norm_13 (BatchNormalization) (None, 18, 18, 512)       2048      
_________________________________________________________________
relu_13 (LeakyReLU)          (None, 18, 18, 512)       0         
_________________________________________________________________
pool_5 (MaxPooling2D)        (None, 9, 9, 512)         0         
_________________________________________________________________
conv_14 (Conv2D)             (None, 9, 9, 1024)        4719616   
_________________________________________________________________
norm_14 (BatchNormalization) (None, 9, 9, 1024)        4096      
_________________________________________________________________
relu_14 (LeakyReLU)          (None, 9, 9, 1024)        0         
_________________________________________________________________
conv_15 (Conv2D)             (None, 9, 9, 1024)        9438208   
_________________________________________________________________
norm_15 (BatchNormalization) (None, 9, 9, 1024)        4096      
_________________________________________________________________
relu_15 (LeakyReLU)          (None, 9, 9, 1024)        0         
_________________________________________________________________
conv_16 (Conv2D)             (None, 9, 9, 5)           5125      
_________________________________________________________________
reshape_1 (Reshape)          (None, 9, 9, 5)           0         
=================================================================
Total params: 18,785,285
Trainable params: 18,774,981
Non-trainable params: 10,304
_________________________________________________________________
+----------+---------------------+----------------+-------------------+---------------------+---------------------+-----------------+
|  Epoch   |       f1_score      |      iou       |        loss       |      precision      |        recall       |     val_loss    |
…
+--------------------+-------------------+----------------+---------------------+---------------------+---------------------+
_________________________________________________________________
Time:
    Train Time : 4:45:48.331826
    Full Time  : 5:06:08.292583
_________________________________________________________________
~~~~~~~~~~~~~~~~~~~~~~~~~~~~~~~~~~~~~~~~~~~~~~~~~~~~~~~~~~~~~~~~~
_________________________________________________________________
Layer (type)                 Output Shape              Param #   
=================================================================
input_1 (InputLayer)         (None, 288, 288, 1)       0         
_________________________________________________________________
conv_1 (Conv2D)              (None, 288, 288, 32)      320       
_________________________________________________________________
norm_1 (BatchNormalization)  (None, 288, 288, 32)      128       
_________________________________________________________________
relu_1 (LeakyReLU)           (None, 288, 288, 32)      0         
_________________________________________________________________
pool_1 (MaxPooling2D)        (None, 144, 144, 32)      0         
_________________________________________________________________
conv_2 (Conv2D)              (None, 144, 144, 64)      18496     
_________________________________________________________________
norm_2 (BatchNormalization)  (None, 144, 144, 64)      256       
_________________________________________________________________
relu_2 (LeakyReLU)           (None, 144, 144, 64)      0         
_________________________________________________________________
pool_2 (MaxPooling2D)        (None, 72, 72, 64)        0         
_________________________________________________________________
conv_3 (Conv2D)              (None, 72, 72, 128)       73856     
_________________________________________________________________
norm_3 (BatchNormalization)  (None, 72, 72, 128)       512       
_________________________________________________________________
relu_3 (LeakyReLU)           (None, 72, 72, 128)       0         
_________________________________________________________________
conv_4 (Conv2D)              (None, 72, 72, 64)        8256      
_________________________________________________________________
norm_4 (BatchNormalization)  (None, 72, 72, 64)        256       
_________________________________________________________________
relu_4 (LeakyReLU)           (None, 72, 72, 64)        0         
_________________________________________________________________
conv_5 (Conv2D)              (None, 72, 72, 128)       73856     
_________________________________________________________________
norm_5 (BatchNormalization)  (None, 72, 72, 128)       512       
_________________________________________________________________
relu_5 (LeakyReLU)           (None, 72, 72, 128)       0         
_________________________________________________________________
pool_3 (MaxPooling2D)        (None, 36, 36, 128)       0         
_________________________________________________________________
conv_6 (Conv2D)              (None, 36, 36, 256)       295168    
_________________________________________________________________
norm_6 (BatchNormalization)  (None, 36, 36, 256)       1024      
_________________________________________________________________
relu_6 (LeakyReLU)           (None, 36, 36, 256)       0         
_________________________________________________________________
conv_7 (Conv2D)              (None, 36, 36, 128)       32896     
_________________________________________________________________
norm_7 (BatchNormalization)  (None, 36, 36, 128)       512       
_________________________________________________________________
relu_7 (LeakyReLU)           (None, 36, 36, 128)       0         
_________________________________________________________________
conv_8 (Conv2D)              (None, 36, 36, 256)       295168    
_________________________________________________________________
norm_8 (BatchNormalization)  (None, 36, 36, 256)       1024      
_________________________________________________________________
relu_8 (LeakyReLU)           (None, 36, 36, 256)       0         
_________________________________________________________________
pool_4 (MaxPooling2D)        (None, 18, 18, 256)       0         
_________________________________________________________________
conv_9 (Conv2D)              (None, 18, 18, 512)       1180160   
_________________________________________________________________
norm_9 (BatchNormalization)  (None, 18, 18, 512)       2048      
_________________________________________________________________
relu_9 (LeakyReLU)           (None, 18, 18, 512)       0         
_________________________________________________________________
conv_10 (Conv2D)             (None, 18, 18, 256)       131328    
_________________________________________________________________
norm_10 (BatchNormalization) (None, 18, 18, 256)       1024      
_________________________________________________________________
relu_10 (LeakyReLU)          (None, 18, 18, 256)       0         
_________________________________________________________________
conv_11 (Conv2D)             (None, 18, 18, 512)       1180160   
_________________________________________________________________
norm_11 (BatchNormalization) (None, 18, 18, 512)       2048      
_________________________________________________________________
relu_11 (LeakyReLU)          (None, 18, 18, 512)       0         
_________________________________________________________________
conv_12 (Conv2D)             (None, 18, 18, 256)       131328    
_________________________________________________________________
norm_12 (BatchNormalization) (None, 18, 18, 256)       1024      
_________________________________________________________________
relu_12 (LeakyReLU)          (None, 18, 18, 256)       0         
_________________________________________________________________
conv_13 (Conv2D)             (None, 18, 18, 512)       1180160   
_________________________________________________________________
norm_13 (BatchNormalization) (None, 18, 18, 512)       2048      
_________________________________________________________________
relu_13 (LeakyReLU)          (None, 18, 18, 512)       0         
_________________________________________________________________
pool_5 (MaxPooling2D)        (None, 9, 9, 512)         0         
_________________________________________________________________
conv_14 (Conv2D)             (None, 9, 9, 1024)        4719616   
_________________________________________________________________
norm_14 (BatchNormalization) (None, 9, 9, 1024)        4096      
_________________________________________________________________
relu_14 (LeakyReLU)          (None, 9, 9, 1024)        0         
_________________________________________________________________
conv_15 (Conv2D)             (None, 9, 9, 1024)        9438208   
_________________________________________________________________
norm_15 (BatchNormalization) (None, 9, 9, 1024)        4096      
_________________________________________________________________
relu_15 (LeakyReLU)          (None, 9, 9, 1024)        0         
_________________________________________________________________
conv_16 (Conv2D)             (None, 9, 9, 5)           5125      
_________________________________________________________________
reshape_1 (Reshape)          (None, 9, 9, 5)           0         
=================================================================
Total params: 18,784,709
Trainable params: 18,774,405
Non-trainable params: 10,304
_________________________________________________________________
+----------+---------------------+----------------+-------------------+---------------------+---------------------+------------------+
|  Epoch   |       f1_score      |      iou       |        loss       |      precision      |        recall       |     val_loss     |
…
